lightning_logs/version_4/checkpoints/epoch=0-step=36294.ckpt (torch, 32843 bytes, 6 tensors)

model.weight f4 [3, 773]
000000 9e 44 e1 3c ed 8e f4 3c 06 0e 0a bc 1c 55 07 3d
       0.02749854 0.029853309 -0.008426195 0.03304015
000010 aa 1d 01 bc bb d3 ed 3b 24 73 8f bc 54 0a ad 3c
       -0.007880608 0.0072579063 -0.017510958 0.021123089
000020 7d f7 1c bf fb 00 0f bf 88 fd 03 bf c1 5d 10 bf
       -0.6131514 -0.5586087 -0.51558733 -0.5639306
000030 86 3b f0 be 9e 61 d4 be 1c fd c7 be 1f ca bf be
       -0.46920413 -0.41480726 -0.39060295 -0.37458894
000040 0b 33 a8 be 84 93 ca be d6 02 cb be 5a 87 c5 be
       -0.32851443 -0.3956567 -0.396506 -0.38579828
000050 6a 48 b3 be 9c d5 d8 be 0c 90 d0 be 27 16 9e be
       -0.35016185 -0.4235047 -0.407349 -0.30876276
000060 08 43 8e be 25 95 87 be c4 88 8f be 27 0f 9d be
       -0.27785516 -0.26480976 -0.2803403 -0.30675623
000070 97 31 af be ab 1b 8f be 02 54 7a be f0 45 68 be
       -0.34217522 -0.27950796 -0.24446109 -0.22682929
000080 76 f3 11 be c7 c7 70 be 39 f3 76 be 64 f1 ce be
       -0.14253029 -0.23513709 -0.2411622 -0.4041854
000090 4d 4c c5 be 87 02 2e be 97 20 56 be 59 ab e3 bd
       -0.38534775 -0.16993152 -0.2091087 -0.11116666
0000a0 93 6e 12 be 71 01 54 be f7 92 41 be 9e a2 cf bd
       -0.14299993 -0.20703675 -0.18903719 -0.10138439
0000b0 e2 c4 97 be 87 b8 27 be dd e5 69 be d0 d2 0a be
       -0.29642397 -0.16378985 -0.22841592 -0.13556981
0000c0 b4 2c 09 be 7b 9e aa be c2 52 00 be 3e c6 c9 bc
       -0.13395959 -0.33324036 -0.1253157 -0.024630662
0000d0 85 25 85 be fc 1b 76 be 2a e3 a7 be dd 44 b8 bd
       -0.26005188 -0.24034113 -0.327905 -0.0899751
0000e0 ba 5e 3a 3c 52 05 24 ba 9b 97 e6 3c 8d 59 d1 bc
       0.011375124 -0.00062568963 0.028148463 -0.025555396
0000f0 7c 6a 14 3b 89 1b c9 bc 8f b5 35 3c 0a f1 4a bc
       0.0022646477 -0.024549263 0.01109065 -0.01238657
000100 d2 9e 05 bf 36 40 ba be 53 31 de be 16 30 11 bf
       -0.52195466 -0.36377114 -0.43397006 -0.56714
000110 18 cd f4 be 5d 6b 02 bf aa 47 b5 be 80 b0 01 bf
       -0.47812724 -0.50945073 -0.35406238 -0.5065994
000120 ce 00 4e be b3 20 b7 be d0 b9 17 bf 58 89 06 bf
       -0.20117494 -0.35767135 -0.592679 -0.5255332
000130 27 7f 0a bf ba b7 f4 be 12 c6 95 be c7 f1 99 be
       -0.5410027 -0.47796422 -0.29252678 -0.30067274
000140 fb 82 b3 be 40 22 08 bf 2b 2f 04 bf b1 ed 1a bf
       -0.35060868 -0.5317726 -0.5163447 -0.6051894
000150 3b 0c 0f bf 35 b1 19 bf 60 0b 03 bf fe e1 de be
       -0.5587804 -0.6003602 -0.5118923 -0.43531793
000160 38 f9 c1 be d2 54 ba be 42 28 0d bf 53 32 1a bf
       -0.3788545 -0.36392838 -0.55139554 -0.6023304
000170 0a 56 08 bf 5f 19 15 bf c9 ea a2 be fa b7 d8 be
       -0.53256285 -0.5824184 -0.31819752 -0.42327863
000180 ed 78 8e be 81 9b b8 be e5 6b e5 be 6d 99 fd be
       -0.27826634 -0.3605614 -0.4480888 -0.49531117
000190 3e fa e6 be 57 52 c5 be f8 13 bb be dd e6 8b be
       -0.45112795 -0.38539383 -0.36538672 -0.27324572
0001a0 3e 1d d0 bd b5 23 a1 be 27 ba 02 bf 9b 66 da be
       -0.101618275 -0.31472555 -0.51065296 -0.42656407
0001b0 1e 76 cc be 8c 6e 10 bf 61 5f a4 be 6a 0b a8 bd
       -0.39933866 -0.5641868 -0.32104018 -0.08205302
0001c0 42 be 9a bd 78 47 7d be 96 57 86 be 91 75 b1 be
       -0.0755582 -0.24734294 -0.26238698 -0.3466001
0001d0 bb 1b 91 be 14 75 98 be 33 3d 8a be 49 9e 41 be
       -0.2834147 -0.29776824 -0.26999816 -0.18908037
0001e0 cf 8b ea bc 32 15 2d be 39 60 b1 bd de ce 02 be
       -0.028631119 -0.16902617 -0.08660931 -0.12774226
0001f0 53 bf 2a be 86 07 4e be 24 1d 26 be dd 5a 09 bd
       -0.16674547 -0.20120057 -0.16222054 -0.03353392
000200 9b 77 40 bf 2b af f3 be da 05 fc be 7d f6 23 bf
       -0.75182503 -0.4759458 -0.49223214 -0.64047986
000210 3f d3 0e bf 48 e1 0e bf 3f 7c f3 be d8 98 3a bf
       -0.55791086 -0.558125 -0.4755573 -0.7288947
000220 58 01 c3 be 81 9d 08 bf 84 b5 10 bf 84 7f e4 be
       -0.38086963 -0.5336533 -0.5652697 -0.44628537
000230 80 17 fc be 51 3a ed be cc 11 11 bf 38 62 f3 be
       -0.4923668 -0.46333554 -0.5666778 -0.47535872
000240 79 b6 09 bf b1 06 1a bf 22 c6 fd be 52 2b 1a bf
       -0.53794056 -0.6016646 -0.49565226 -0.6022235
000250 0d 7d 0c bf ba da 0e bf c7 bc 15 bf 3e 79 16 bf
       -0.5487831 -0.558025 -0.58491176 -0.5877875
000260 ac 34 09 bf 9e 84 0c bf f7 dd 1f bf 3e 38 28 bf
       -0.53595996 -0.5488986 -0.62448066 -0.6571082
000270 85 0f 25 bf dd f0 14 bf d6 4f fc be 7d 79 f8 be
       -0.64476806 -0.5818003 -0.4927966 -0.48530188
000280 b1 7f a5 be ed d5 fc be a8 fd 18 bf eb 63 26 bf
       -0.32323983 -0.49381962 -0.5976205 -0.6499621
000290 f2 9d 11 bf 02 6b 1a bf 98 46 00 bf b3 63 cf be
       -0.5688163 -0.6031953 -0.5010772 -0.40505752
0002a0 a6 90 e6 be fd af 04 bf 71 3a 14 bf 51 c2 26 bf
       -0.45032233 -0.51831037 -0.57901675 -0.65140253
0002b0 19 2e 15 bf 24 0e 0c bf 7c 98 05 bf 50 dd dc be
       -0.58273464 -0.54709077 -0.521858 -0.43137598
0002c0 e9 32 f2 be 16 8e 12 bf cf 14 0f bf c2 f1 e3 be
       -0.47304466 -0.57248056 -0.55891126 -0.44520384
0002d0 68 29 00 bf 24 2f fa be 28 e7 26 bf 16 05 fc be
       -0.5006318 -0.4886409 -0.65196466 -0.4922263
0002e0 72 b2 9b be 78 34 c4 be f5 ca ec be 98 28 96 be
       -0.3040958 -0.3832128 -0.46248594 -0.29327846
0002f0 6e 9a 96 be 45 5d df be e8 5b 9c be 6e 67 a6 be
       -0.29414696 -0.43625847 -0.3053887 -0.32500786
000300 60 7f 28 bf 82 12 1f bf d2 29 23 bf 2f c9 1d bf
       -0.6581936 -0.62137616 -0.6373569 -0.61635107
000310 d8 db 17 bf f3 2e 1d bf cd 28 1e bf c4 9e 20 bf
       -0.5931983 -0.61399764 -0.6178101 -0.6274226
000320 09 a8 37 bf 40 d9 33 bf 62 51 3e bf 84 a6 47 bf
       -0.71740776 -0.7025337 -0.7434293 -0.7798846
000330 73 14 3d bf 74 99 3d bf e9 13 36 bf e2 12 39 bf
       -0.7385933 -0.74062276 -0.7112413 -0.7229444
000340 9a 33 38 bf 38 78 30 bf 8d c6 2d bf 84 da 33 bf
       -0.7195374 -0.6893344 -0.6788109 -0.70255303
000350 bd 1a 26 bf eb 5c 32 bf 44 e1 31 bf 8c a6 26 bf
       -0.6488455 -0.6967303 -0.69484353 -0.6509788
000360 79 5d 28 bf 0b 05 19 bf 3f d5 29 bf a5 ac 25 bf
       -0.6576763 -0.5977332 -0.6634101 -0.6471656
000370 57 b7 1e bf 1b a1 0c bf ac ad 11 bf 59 a9 11 bf
       -0.61998504 -0.5493333 -0.5690563 -0.5689903
000380 a6 d2 ff be 08 9b 05 bf bb 52 04 bf 7f fe 05 bf
       -0.499654 -0.52189684 -0.51688737 -0.52341455
000390 32 88 fe be 65 2a ea be 99 8b f8 be fe 45 ea be
       -0.49713284 -0.4573547 -0.48544005 -0.45756525
0003a0 f6 8e c4 be 25 c9 d3 be db 5b e0 be c0 7e d4 be
       -0.3839032 -0.413644 -0.4382008 -0.41502953
0003b0 26 bb d6 be ab 6b dd be 9b 38 e4 be ef c0 e0 be
       -0.41939658 -0.43246207 -0.44574437 -0.43897197
0003c0 8a 2e c0 be b7 b0 c4 be e1 64 e2 be 42 82 e9 be
       -0.37535506 -0.38416073 -0.4421759 -0.4560719
0003d0 6e f4 d8 be eb 64 e5 be 44 61 e1 be 3a b8 c0 be
       -0.42373985 -0.44803557 -0.4401952 -0.37640554
0003e0 85 6c e7 be 1b e7 d6 be 22 10 03 bf c8 71 06 bf
       -0.4519998 -0.41973194 -0.5119649 -0.52517366
0003f0 49 36 02 bf 83 d9 f9 be 37 4d f8 be 77 78 d0 be
       -0.5086408 -0.4879876 -0.4849641 -0.40716907

model.bias f4 [3]
000000 a6 73 5f 3e 2b 15 41 be ab b1 9c bc
       0.2182146 -0.18855731 -0.019127687

exp_avg f4 [3, 773]
000000 00 00 00 00 00 00 00 00 00 00 00 00 00 00 00 00
       0.0 0.0 0.0 0.0
000010 00 00 00 00 00 00 00 00 00 00 00 00 00 00 00 00
       0.0 0.0 0.0 0.0
000020 70 b8 dc b8 54 c7 e4 b8 3c 95 1b 39 5f f1 04 39
       -0.00010524772 -0.00010909015 0.00014837546 0.00012678419
000030 7e 4a 26 38 2f 4e 64 38 0c 66 cd 38 a3 8e e2 37
       3.964686e-05 5.443225e-05 9.7941695e-05 2.700772e-05
000040 d9 c7 83 b6 6b a0 19 39 94 d2 73 b4 bd 1a 6e 39
       -3.9273696e-06 0.00014650977 -2.2707746e-07 0.0002270741
000050 ba 83 59 b9 c7 aa b4 38 bc b3 8c b9 c8 09 b8 b8
       -0.00020743805 8.6148786e-05 -0.00026836793 -8.7756256e-05
000060 2a 16 69 39 9c 85 3e b9 4a 18 26 ba a8 21 b7 37
       0.00022228868 -0.00018169585 -0.0006336017 2.1830972e-05
000070 d3 b8 b7 3a a8 47 94 39 5c 2b aa b9 49 5f 43 b9
       0.0014016874 0.00028282148 -0.00032457232 -0.00018632146
000080 04 58 58 ba 8f 59 4d ba f7 da a6 3a 01 d3 1c ba
       -0.00082528614 -0.00078334747 0.0012730052 -0.000598237
000090 27 ad 50 39 c7 3c a4 b9 04 b2 04 3a a7 2f bf ba
       0.0001990093 -0.000313258 0.0005061927 -0.0014586345
0000a0 bb 01 47 ba d3 c4 d9 b8 0e d9 ee 39 e4 8b a2 38
       -0.00075915054 -0.00010384028 0.00045556616 7.7508186e-05
0000b0 fc 31 88 39 af e2 72 3a 10 c7 c8 ba 48 33 44 3a
       0.00025977183 0.0009265346 -0.0015318114 0.0007484448
0000c0 ca 37 95 39 47 98 b0 39 86 19 5a ba 6f 8d 48 3a
       0.0002846106 0.0003368279 -0.00083198433 0.000765047
0000d0 9d 87 e2 39 13 14 87 ba bf f4 40 ba 34 ff 16 3a
       0.0004320712 -0.0010305665 -0.0007360689 0.0005760074
0000e0 00 00 00 00 00 00 00 00 00 00 00 00 00 00 00 00
       0.0 0.0 0.0 0.0
0000f0 00 00 00 00 00 00 00 00 00 00 00 00 00 00 00 00
       0.0 0.0 0.0 0.0
000100 83 f4 2d b9 47 b9 f1 36 8c ce 4f b7 62 c9 ec b7
       -0.00016589653 7.203929e-06 -1.2386252e-05 -2.8227169e-05
000110 df 9b 52 36 e8 c7 a0 b7 fa f2 74 b6 bf 92 8c 38
       3.1383167e-06 -1.9166575e-05 -3.6500264e-06 6.703054e-05
000120 e3 43 fd 37 bf ee af 38 23 46 6c 38 49 11 28 b8
       3.0191562e-05 8.38912e-05 5.6332105e-05 -4.007042e-05
000130 e2 2f 89 39 70 95 8f 38 14 25 0e b7 9b 7a aa 38
       0.00026166352 6.846606e-05 -8.4724925e-06 8.129069e-05
000140 5b 93 d9 37 ab 52 1e 38 da ab b1 38 4b e5 ec 38
       2.5937034e-05 3.7747126e-05 8.4720275e-05 0.00011296066
000150 f0 5b bc 39 da a9 b9 b9 e5 78 ae b8 c0 58 72 37
       0.00035926653 -0.000354125 -8.319485e-05 1.4444988e-05
000160 64 44 ea b8 20 01 e4 b8 7f ac 80 39 37 49 b5 39
       -0.00011170728 -0.00010872097 0.00024542582 0.0003457756
000170 04 a0 59 3a d7 23 7c b7 e6 90 84 b9 ff ed 81 39
       0.0008301737 -1.5028715e-05 -0.0002528496 0.00024782118
000180 cf 98 94 b9 ed 61 f2 b8 fc 9d 09 b9 91 05 86 b9
       -0.0002834261 -0.00011557699 -0.00013124192 -0.0002556262
000190 9b 55 68 ba 6e 25 8d b8 d7 d9 94 39 ad fd 8f 38
       -0.0008862854 -6.730376e-05 0.00028391063 6.866022e-05
0001a0 21 83 06 3a c1 96 8f 39 39 70 b4 3a 3d fe 76 39
       0.0005131234 0.00027387406 0.0013766355 0.000235551
0001b0 36 2b 77 39 77 4e a7 ba cc 64 4e b8 b4 2e 7b b9
       0.00023571853 -0.0012764473 -4.92081e-05 -0.00023954624
0001c0 6c eb 55 39 94 2a e2 b8 85 1d 16 39 2b dd e7 b9
       0.00020400964 -0.000107844506 0.00014316112 -0.00044224536
0001d0 2a f9 b9 3a be 0b 31 b9 b6 61 6a b8 83 39 d6 37
       0.0014188637 -0.0001688441 -5.5880948e-05 2.5537569e-05
0001e0 7d 17 02 37 43 8d c1 3a d8 ea d1 38 7c 4f a5 39
       7.754073e-06 0.0014766831 0.0001000964 0.00031530473
0001f0 7b c5 40 39 67 58 c2 38 fe f2 b2 b8 3b 3a e3 38
       0.00018384114 9.267107e-05 -8.532962e-05 0.0001083505
000200 f7 19 09 b8 62 9e 71 b8 08 a1 24 b8 ce 10 94 b8
       -3.2687527e-05 -5.7606383e-05 -3.925062e-05 -7.06032e-05
000210 a8 e2 8b 37 fa 15 b8 38 0e 45 4a b8 e0 47 6d 38
       1.6675636e-05 8.777897e-05 -4.8224865e-05 5.6572142e-05
000220 e0 a3 f3 b8 ff d2 67 39 ed 48 1a 39 d1 d7 4c 38
       -0.00011617667 0.00022108479 0.00014713751 4.8838385e-05
000230 79 d0 5f 38 b7 3d 76 b9 39 94 f9 37 ff ce da 38
       5.33615e-05 -0.00023483379 2.9752135e-05 0.00010433606
000240 e1 d2 e7 38 b5 0b 1e 39 38 d3 ab 38 cf fb d6 39
       0.000110542176 0.00015072415 8.193258e-05 0.00041004873
000250 04 ce 42 b9 e8 ad 30 b9 54 0d 39 39 2e 01 27 3a
       -0.00018578029 -0.00016849453 0.0001764794 0.000637072
000260 7a 51 01 39 0a 21 12 ba 59 62 c3 b7 01 86 40 b7
       0.00012332751 -0.0005574381 -2.3291608e-05 -1.1475292e-05
000270 de 7b 6d b8 88 18 ac 38 b8 3b 0f ba 56 22 84 38
       -5.6620564e-05 8.2061684e-05 -0.0005463916 6.300646e-05
000280 fb a4 5e b8 2b 91 26 b9 95 01 09 3a 77 5e 38 39
       -5.3082575e-05 -0.00015885073 0.0005226371 0.00017582798
000290 d4 2d 9a b7 14 ad 90 b9 57 fb 34 39 eb f0 df 38
       -1.8379571e-05 -0.00027594774 0.00017259769 0.00010678343
0002a0 c9 7a 0b 39 ce 64 b1 b9 2b 61 f9 b9 2a 48 38 3a
       0.00013301814 -0.00033835176 -0.00047565377 0.0007029796
0002b0 84 6f a6 39 78 a0 37 3a 3f ab 5e 3a 0a 61 14 b8
       0.00031745073 0.00070048077 0.00084941456 -3.5376324e-05
0002c0 af 67 83 38 22 43 ce b9 9d 12 11 3a 5f 16 84 38
       6.265879e-05 -0.000393414 0.00055340846 6.2984174e-05
0002d0 c5 56 b8 b9 33 51 38 b9 aa 3e d4 39 93 49 ee b8
       -0.00035159863 -0.00017577856 0.0004048248 -0.000113624286
0002e0 ab 11 07 b8 da 45 6e 39 44 e1 6f 3b a5 79 d7 39
       -3.2202963e-05 0.0002272347 0.0036602775 0.00041098628
0002f0 c3 5e fd 38 8b 39 ac 3a be 34 01 39 03 08 c1 b7
       0.00012081631 0.0013139708 0.00012322047 -2.3011124e-05
000300 88 45 cb b8 b9 b1 8a 38 9b 2b 2e 39 ca 87 ac b8
       -9.6927455e-05 6.613456e-05 0.00016610177 -8.226892e-05
000310 7b d1 e0 38 76 8b b6 37 4d ce 08 38 18 42 95 38
       0.00010720171 2.1761032e-05 3.261706e-05 7.1171846e-05
000320 5b b0 4f b9 e4 95 6f 36 62 04 1d b5 de 06 14 39
       -0.00019806756 3.5701023e-06 -5.8493436e-07 0.00014116938
000330 ba da 87 38 c9 ee da b8 f3 0f 34 b8 b5 2a 72 b8
       6.4780426e-05 -0.00010439527 -4.2930198e-05 -5.773707e-05
000340 dc da c4 b8 ce 1e 5c b9 57 96 93 39 43 6d 10 39
       -9.386774e-05 -0.0002099231 0.00028150037 0.00013773613
000350 e3 55 f7 38 f5 3b 85 39 e7 f2 bd 38 f0 62 33 39
       0.000117938755 0.00025412408 9.0574664e-05 0.00017107627
000360 e7 6c f5 38 8c 7e 86 39 06 7c 8c 39 32 73 4d b7
       0.00011702795 0.00025652756 0.00026795286 -1.2245773e-05
000370 67 c3 3b b9 1b fe 27 39 13 48 62 37 39 21 e6 38
       -0.00017906503 0.00016021023 1.3487431e-05 0.00010973443
000380 31 78 25 b8 d2 28 c5 b8 cb bf 96 38 bc 15 a6 39
       -3.9451003e-05 -9.4012954e-05 7.1882816e-05 0.0003167818
000390 89 57 e7 38 dd 8f 09 39 09 7c 91 b9 14 cb 8c b8
       0.00011031243 0.00013118931 -0.0002774897 -6.7135465e-05
0003a0 7d a2 82 b8 08 63 6b 37 6d 1b ef 38 eb be 3f 36
       -6.229149e-05 1.4030149e-05 0.000114015165 2.8572347e-06
0003b0 72 9d 56 b9 b9 31 aa 39 42 4b d4 38 fe 72 fb 38
       -0.00020467283 0.00032461973 0.000101229656 0.000119900316
0003c0 46 b5 40 39 cf 27 c0 b8 7d d5 af 39 da 0a 8d 39
       0.00018378076 -9.1626884e-05 0.00033537662 0.000269017
0003d0 98 88 37 b9 83 3e b9 39 cb 81 3b b9 e5 09 7a 39
       -0.00017503125 0.00035332525 -0.00017882061 0.00023845544
0003e0 36 88 24 3b c4 be 4a b8 a8 ce 09 ba 1a a9 2b 39
       0.0025105602 -4.8338217e-05 -0.00052569294 0.00016370826
0003f0 b0 c6 25 3b da 48 bc 39 6a 9b af b9 bd 7c 51 ba
       0.002529543 0.00035912433 -0.00033494394 -0.0007991305

exp_avg_sq f4 [3, 773]
000000 00 00 00 00 00 00 00 00 00 00 00 00 00 00 00 00
       0.0 0.0 0.0 0.0
000010 00 00 00 00 00 00 00 00 00 00 00 00 00 00 00 00
       0.0 0.0 0.0 0.0
000020 83 ca 9c 34 0e 36 85 34 4b 39 90 34 c1 9c 8d 34
       2.920461e-07 2.481251e-07 2.6863776e-07 2.637735e-07
000030 25 02 91 34 c6 2f 73 34 1e a3 6d 34 bb d4 9f 34
       2.7009915e-07 2.2648518e-07 2.2131687e-07 2.977084e-07
000040 5f 46 40 35 fa 44 20 35 f5 8e 75 35 2f 2a af 35
       7.1627977e-07 5.970502e-07 9.147764e-07 1.3050793e-06
000050 73 a8 85 35 84 94 89 35 cf 59 36 35 18 26 8d 35
       9.958297e-07 1.0250519e-06 6.793097e-07 1.0516405e-06
000060 22 46 44 36 0b d3 7b 36 4d 92 a4 36 b2 13 5c 37
       2.9247099e-06 3.7524758e-06 4.9046125e-06 1.31176075e-05
000070 a2 39 89 37 29 c0 78 36 dc ae 7f 36 8f 71 40 36
       1.635851e-05 3.7066732e-06 3.8099743e-06 2.867633e-06
000080 7b 87 5e 37 9a 0e 49 37 23 91 ab 37 04 65 1a 38
       1.3263775e-05 1.1983933e-05 2.0452373e-05 3.681054e-05
000090 0a 4f 1f 38 39 38 75 37 af 3a 3e 37 d9 58 2a 37
       3.7982165e-05 1.4616228e-05 1.1338546e-05 1.0153476e-05
0000a0 9e cd d1 37 9c c8 a8 37 d2 c5 f3 37 e8 45 cf 37
       2.501049e-05 2.0120577e-05 2.9059975e-05 2.4708876e-05
0000b0 5a c1 b9 37 2e 36 7e 37 73 25 d8 37 b2 d6 10 38
       2.2143755e-05 1.51521945e-05 2.5766645e-05 3.4532226e-05
0000c0 a6 8d c9 38 f3 ea b3 38 dc 44 6d 38 69 04 15 37
       9.610811e-05 8.579148e-05 5.6569334e-05 8.882119e-06
0000d0 4f 86 d1 36 d9 b5 c3 38 39 01 d3 38 30 d8 c1 38
       6.244321e-06 9.332196e-05 0.00010061492 9.243225e-05
0000e0 00 00 00 00 00 00 00 00 00 00 00 00 00 00 00 00
       0.0 0.0 0.0 0.0
0000f0 00 00 00 00 00 00 00 00 00 00 00 00 00 00 00 00
       0.0 0.0 0.0 0.0
000100 2a 7b 99 34 f9 22 f7 32 bd db ae 33 32 f7 b1 33
       2.8588084e-07 2.8770488e-08 8.1424766e-08 8.287169e-08
000110 b3 57 98 33 28 a5 9c 33 b4 d8 c2 32 99 d2 55 34
       7.094004e-08 7.294358e-08 2.2683118e-08 1.9913786e-07
000120 f1 64 2e 34 27 e0 5c 34 fc 63 03 35 1b 80 9b 34
       1.6241735e-07 2.0570643e-07 4.89468e-07 2.896421e-07
000130 87 18 bb 34 3c 3f f8 34 63 77 fb 33 d4 14 0a 34
       3.484931e-07 4.623961e-07 1.17098146e-07 1.2859829e-07
000140 44 67 f5 33 8d 84 a6 34 57 d8 44 35 be 03 66 35
       1.14274854e-07 3.1016353e-07 7.3330506e-07 8.568712e-07
000150 59 70 25 35 0d de 18 35 aa 9e ac 34 a6 3f 4c 34
       6.163078e-07 5.694754e-07 3.215294e-07 1.9022136e-07
000160 5c f5 92 34 72 fd 18 36 fa 3c 88 35 ab 95 39 36
       2.7373142e-07 2.279729e-06 1.0150536e-06 2.7654266e-06
000170 8b f5 a4 36 07 53 8d 35 99 89 63 36 ad fe c6 34
       4.916166e-06 1.0529483e-06 3.3905728e-06 3.7065675e-07
000180 66 de b8 35 c4 66 9e 34 d6 d4 e0 35 08 94 84 36
       1.3773795e-06 2.9504565e-07 1.6751244e-06 3.9511397e-06
000190 7d ce 5b 36 9b d2 ba 35 eb 43 27 35 6c 3d cf 35
       3.2753735e-06 1.3919374e-06 6.231118e-07 1.5440578e-06
0001a0 4b aa c7 35 e0 ba 08 36 31 a3 00 38 b4 dd 62 35
       1.4876217e-06 2.0374355e-06 3.0669562e-05 8.451418e-07
0001b0 7d 3f 92 35 6e cf 16 38 0c e0 2e 36 8e e8 ab 35
       1.0896325e-06 3.595597e-05 2.6058433e-06 1.2808175e-06
0001c0 4b 9c 82 34 b1 6b 33 34 ef 0b 0f 35 69 c5 20 37
       2.4328105e-07 1.6709852e-07 5.3289017e-07 9.582706e-06
0001d0 4a 22 cf 36 19 69 d5 34 d8 10 6b 34 2d e9 85 35
       6.1730725e-06 3.975081e-07 2.1892208e-07 9.977135e-07
0001e0 ee c8 1d 33 58 1d 9f 37 79 86 54 34 ac 47 f7 34
       3.6737156e-08 1.8967941e-05 1.979296e-07 4.6059483e-07
0001f0 53 b7 08 35 a2 1e 1e 35 21 35 20 37 83 09 45 33
       5.093072e-07 5.8904163e-07 9.549113e-06 4.5876288e-08
000200 68 29 17 34 4a 08 b4 33 2e d8 9d 33 ef 00 0a 34
       1.4078034e-07 8.383411e-08 7.350205e-08 1.2852591e-07
000210 1c f9 b1 33 2e 62 0c 34 8f f7 a6 33 55 f0 d8 33
       8.2875175e-08 1.3074234e-07 7.775008e-08 1.0102e-07
000220 dd fc 97 34 18 7f ba 34 30 98 cb 34 40 02 81 34
       2.8309924e-07 3.4737673e-07 3.7922428e-07 2.402976e-07
000230 56 aa cd 34 1a 31 0b 35 e0 78 9a 34 3f a3 98 34
       3.830816e-07 5.185299e-07 2.8772683e-07 2.8430983e-07
000240 f7 12 d1 34 57 27 c9 34 77 c4 5e 35 52 7c 38 35
       3.8943082e-07 3.746779e-07 8.298734e-07 6.872625e-07
000250 5c 84 31 35 57 84 82 35 c2 1a d7 34 2f 4e b2 35
       6.6130247e-07 9.724271e-07 4.006634e-07 1.3284788e-06
000260 ed 9c aa 34 b8 c2 53 36 c9 8a 4e 35 2a ee cd 35
       3.1779146e-07 3.1554791e-06 7.694294e-07 1.5343005e-06
000270 0f 44 ac 35 62 23 1e 35 95 c2 ce 36 53 0a 05 35
       1.2834806e-06 5.8911075e-07 6.1619307e-06 4.9561385e-07
000280 8a ab 86 35 37 d7 29 35 8c fa 2c 37 d8 8f bc 35
       1.0033702e-06 6.3270585e-07 1.0310334e-05 1.4048956e-06
000290 f6 0b c2 35 cd 8f e8 36 5d b0 2d 35 60 eb e6 35
       1.4457607e-06 6.9308794e-06 6.4704165e-07 1.7204839e-06
0002a0 36 eb b2 35 48 08 a7 36 e9 7c ef 35 5c 2e 44 37
       1.3330489e-06 4.977952e-06 1.7843241e-06 1.1693304e-05
0002b0 bf e9 2d 37 f8 e7 3f 36 f8 65 42 36 7d e4 63 35
       1.0366027e-05 2.8596241e-06 2.8967606e-06 8.4896584e-07
0002c0 85 78 9e 35 a7 0a df 36 45 91 1a 36 c6 99 db 36
       1.1806993e-06 6.647158e-06 2.3032346e-06 6.54461e-06
0002d0 15 55 34 37 e7 3f 50 35 7f 8d 1b 37 5b f4 34 35
       1.0748646e-05 7.757903e-07 9.271665e-06 6.741081e-07
0002e0 52 2a 70 34 e3 ee 2a 35 cd 84 00 38 fd 96 f2 34
       2.2367138e-07 6.367756e-07 3.064126e-05 4.518587e-07
0002f0 9b d9 b8 34 60 ce 8e 37 d1 e6 f2 33 2e 5c 18 34
       3.4431e-07 1.702382e-05 1.13109884e-07 1.4189638e-07
000300 d4 8f d7 34 d5 29 9d 34 1f fa c1 34 dd d0 05 35
       4.015152e-07 2.9273966e-07 3.6131038e-07 4.9850297e-07
000310 48 9a f7 34 d0 86 89 34 cf fd 3b 34 fc 6d 89 34
       4.611959e-07 2.5616328e-07 1.7508067e-07 2.5598263e-07
000320 5a d4 77 35 0a 13 7c 35 7c db 68 35 45 f9 4c 35
       9.232368e-07 9.390502e-07 8.6746127e-07 7.6358657e-07
000330 56 85 41 35 7a bf 16 35 cb b7 f3 34 e6 76 04 35
       7.209213e-07 5.615799e-07 4.5396004e-07 4.934685e-07
000340 c5 54 0b 35 6c be d7 34 f0 b3 05 35 de 9c 29 35
       5.190489e-07 4.018542e-07 4.9808204e-07 6.318568e-07
000350 08 d6 1a 35 1f 52 c0 34 80 b2 97 34 58 65 b5 34
       5.7680927e-07 3.5822538e-07 2.8255818e-07 3.3787614e-07
000360 58 ae da 34 bb 3f d0 34 77 7f f0 34 8e a0 27 35
       4.0732516e-07 3.878939e-07 4.4796226e-07 6.2445986e-07
000370 47 4a 4a 35 67 e2 f6 34 b8 c6 ae 34 23 cd cb 34
       7.535895e-07 4.59858e-07 3.2554613e-07 3.7960953e-07
000380 1a 12 d3 34 12 21 b6 34 da b5 d5 34 e1 5c 46 35
       3.9314983e-07 3.3924204e-07 3.9806656e-07 7.3895905e-07
000390 65 01 54 35 50 af 32 35 a4 0a d0 34 e6 0c 00 35
       7.8978184e-07 6.656528e-07 3.875076e-07 4.7702486e-07
0003a0 93 71 0c 35 ff db 10 35 80 72 1e 35 7e 57 78 35
       5.2319336e-07 5.3964317e-07 5.9026206e-07 9.251452e-07
0003b0 d1 2c a8 35 d0 02 9c 35 8b ee 5d 35 98 fd 36 35
       1.2530019e-06 1.1623724e-06 8.267604e-07 6.816931e-07
0003c0 97 15 2d 35 10 d1 09 35 ee 74 68 35 5d 72 d3 35
       6.447894e-07 5.1340703e-07 8.659689e-07 1.5754009e-06
0003d0 77 ad d2 35 0d fd b2 35 d1 9f 06 35 49 5e 00 35
       1.5696704e-06 1.3335681e-06 5.0151453e-07 4.782092e-07
0003e0 ac 97 b7 38 64 88 c9 36 ee 36 ff 36 be c4 95 37
       8.754371e-05 6.0061448e-06 7.605987e-06 1.78538e-05
0003f0 78 94 96 37 37 6a 36 38 f9 1d 49 36 1a 1c 4d 38
       1.795053e-05 4.34911e-05 2.996878e-06 4.890198e-05

exp_avg f4 [3]
000000 0e f9 d2 ba ab 17 21 b8 e9 82 d8 3a
       -0.0016095953 -3.8407434e-05 0.0016518506

exp_avg_sq f4 [3]
000000 32 84 31 39 a7 ae 08 38 2b a2 2a 39
       0.00016929282 3.2587584e-05 0.00016272876
