lightning_logs/version_2/checkpoints/epoch=0-step=36294.ckpt (torch, 34187 bytes, 6 tensors)

model.weight f4 [3, 808]
0.013506353 -0.15296756 -0.054343507 0.22160189 0.24364217 0.16686864 -0.092519686 0.009880753
0.12986219 -0.0221545 0.0872467 0.07813021 0.11664279 0.049066167 -0.035934858 0.039561715
0.110500984 0.09464974 0.03134045 0.0021997609 -0.023450017 0.009433228 0.018996218 0.11323672
0.13615277 0.005241219 -0.065207675 -0.051053558 -0.066428795 -0.016892312 0.020261832 0.07846242
0.026606388 -0.0920624 -0.11852415 -0.088195376 -0.13646916 -0.12176027 -0.08008655 0.027060006
0.04407131 -0.1931212 -0.14840415 -0.15089753 -0.13550307 -0.26798093 -0.14646876 -0.019317167
0.14652331 -0.09378632 -0.1305511 -0.08409439 -0.18867572 -0.20274298 -0.21517771 -0.035540048
0.23266183 -0.009318671 -0.0026772434 0.08781743 0.015957857 -0.016375445 -0.027648825 0.16426708
-2.4588418 -2.4297385 -2.427895 -2.7266254 -2.5349889 -2.3928947 -2.5404916 -2.502124
-2.4459581 -2.6017847 -2.663072 -2.7093503 -2.6246097 -2.6066997 -2.5984142 -2.736749
-2.6060739 -2.609198 -2.6178916 -2.6334414 -2.6124425 -2.6389449 -2.6273007 -2.6358287
-2.5748425 -2.5956204 -2.6612074 -2.8160927 -2.7714374 -2.6487606 -2.7017558 -2.7177768
-2.6073542 -2.6584024 -2.808912 -2.8765297 -2.879807 -2.8883753 -2.7769384 -2.849237
-2.691494 -2.6480699 -2.8969264 -2.9767964 -3.0068042 -3.1374316 -3.0813274 -3.0715566
-2.6972384 -2.7717352 -2.8798034 -2.828195 -2.8924086 -3.1496232 -2.9529314 -3.1015675
-2.7391016 -2.9096408 -2.9900537 -2.456172 -3.1072364 -3.056566 -3.1369681 -2.9342551
-1.4010609 -1.4301023 -1.5101138 -1.5417997 -1.6067585 -1.4973582 -1.5031083 -1.3006155
-1.4459032 -1.4222621 -1.4870061 -1.5151908 -1.4430124 -1.4564003 -1.4276668 -1.4657105
-1.4631498 -1.5111434 -1.5672421 -1.4807082 -1.461982 -1.4605256 -1.5182112 -1.508409
-1.5498539 -1.5829545 -1.5987979 -1.6440451 -1.588224 -1.4796377 -1.5507272 -1.5335813
-1.699429 -1.7019153 -1.7435154 -1.721717 -1.6647959 -1.667617 -1.6958127 -1.6606835
-1.8411483 -1.8082732 -1.7922918 -1.8038008 -1.7171621 -1.8157762 -1.7844837 -1.764201
-1.835317 -1.7682701 -1.8731052 -1.8890102 -1.8307357 -1.8612641 -1.8043376 -1.8531951
-1.6965814 -1.7736847 -1.6243255 -1.5358438 -1.4864583 -1.5100508 -1.7547015 -1.7517221
-1.0630434 -1.1105487 -1.1432426 -0.98598224 -1.009125 -1.0228571 -1.1121134 -1.0307925
-1.1567327 -1.293017 -1.2820096 -1.1043717 -1.2291096 -1.2022471 -1.3538554 -1.1956313
-1.1630764 -1.2096034 -1.2675347 -1.3351967 -1.3184904 -1.207176 -1.2203803 -1.0977715
-1.0508455 -1.1593395 -1.2693709 -1.3461013 -1.2787639 -1.3259963 -1.1406611 -1.1382301
-1.2229575 -1.205954 -1.261636 -1.3131589 -1.3991283 -1.2000706 -1.1989148 -1.1898272
-1.1800585 -1.2984794 -0.99145365 -1.3056118 -1.1905868 -0.9867092 -1.287731 -1.320152
-1.0354686 -1.2401431 -1.2736218 -0.8657327 -0.9595018 -1.1329691 -1.122186 -1.149189
-1.1098241 -1.0630907 -1.0651629 -1.0400878 -1.1401457 -0.90373975 -1.051205 -1.1122199
00000000: c049 5d3c 87a3 1cbe 4c97 5ebd 9beb 623e
00000010: 557d 793e 9ddf 2a3e f67a bdbd e2e2 213c
00000020: 98fa 043e 5b7d b5bc 66ae b23d bb02 a03d
00000030: 6ae2 ee3d 9bf9 483d 6e30 13bd 770b 223d
00000040: 574e e23d b9d7 c13d d85e 003d dd29 103b
00000050: 401a c0bc d38d 1a3c f59d 9b3c a7e8 e73d
00000060: a26b 0b3e 88be ab3b 9a8b 85bd 891d 51bd
00000070: d20b 88bd bf61 8abc 24fc a53c e8b0 a03d
00000080: a4f5 d93c 368b bcbd cabc f2bd c79f b4bd
00000090: 92be 0bbe 735d f9bd 6b04 a4bd f2ac dd3c
000000a0: 1e84 343d 90c1 45be 42f7 17be e284 1abe
000000b0: 51c1 0abe cc34 89be e8fb 15be 093f 9ebc
000000c0: 350a 163e 0b13 c0bd 30af 05be ae39 acbd
000000d0: 3534 41be db9b 4fbe 8c57 5cbe 7192 11bd
000000e0: e73e 6e3e 57ad 18bc b174 2fbb a0d9 b33d
000000f0: 0dba 823c cc25 86bc ca7f e2bc a135 283e
00000100: aa5d 1dc0 d680 1bc0 a262 1bc0 0881 2ec0
00000110: 423d 22c0 3025 19c0 6a97 22c0 cd22 20c0
00000120: 948a 1cc0 a483 26c0 c66f 2ac0 ff65 2dc0
00000130: 9bf9 27c0 2bd4 26c0 6b4c 26c0 e526 2fc0
00000140: eac9 26c0 1afd 26c0 898b 27c0 4e8a 28c0
00000150: 4232 27c0 79e4 28c0 b225 28c0 6bb1 28c0
00000160: 38ca 24c0 a51e 26c0 3951 2ac0 dd3a 34c0
00000170: 3b5f 31c0 4b85 29c0 91e9 2cc0 0ef0 2dc0
00000180: e4de 26c0 4423 2ac0 37c5 33c0 1019 38c0
00000190: c24e 38c0 24db 38c0 5cb9 31c0 e659 36c0
000001a0: 7041 2cc0 fa79 29c0 3e67 39c0 d583 3ec0
000001b0: 7b6f 40c0 aecb 48c0 7834 45c0 6294 44c0
000001c0: 8e9f 2cc0 1c64 31c0 b34e 38c0 2601 35c0
000001d0: 391d 39c0 6d93 49c0 d4fc 3cc0 1580 46c0
000001e0: 714d 2fc0 8e37 3ac0 0a5d 3fc0 ec31 1dc0
000001f0: f6dc 46c0 c79e 43c0 16c4 48c0 d6ca 3bc0
00000200: f755 b3bf 980d b7bf 694b c1bf b159 c5bf
00000210: 43aa cdbf 6fa9 bfbf da65 c0bf 927a a6bf
00000220: 5b13 b9bf af0c b6bf 3756 bebf c6f1 c1bf
00000230: a1b4 b8bf 536b babf c9bd b6bf 679c bbbf
00000240: 7e48 bbbf 266d c1bf 649b c8bf d987 bdbf
00000250: 3a22 bbbf 81f2 babf bf54 c2bf 8c13 c1bf
00000260: 9d61 c6bf 419e cabf 69a5 ccbf 1270 d2bf
00000270: ed4a cbbf c564 bdbf 3b7e c6bf 644c c4bf
00000280: e486 d9bf 5cd8 d9bf 832b dfbf 3961 dcbf
00000290: 0818 d5bf 7974 d5bf 6410 d9bf 4791 d4bf
000002a0: bfaa ebbf 7f75 e7bf d169 e5bf f2e2 e6bf
000002b0: f8cb dbbf 5b6b e8bf f669 e4bf 57d1 e1bf
000002c0: abeb eabf ad56 e2bf e9c1 efbf 16cb f1bf
000002d0: 8c55 eabf e73d eebf 89f4 e6bf 7f35 edbf
000002e0: 9429 d9bf 1a08 e3bf e6e9 cfbf 8896 c4bf
000002f0: 4444 bebf 5849 c1bf 0f9a e0bf 6e38 e0bf
00000300: ce11 88bf 7626 8ebf c655 92bf 5569 7cbf
00000310: 022b 81bf fbec 82bf bb59 8ebf 02f1 83bf
00000320: d10f 94bf 9581 a5bf e418 a4bf 0d5c 8dbf
00000330: 7753 9dbf 3ce3 99bf 224b adbf 720a 99bf
00000340: b0df 94bf 49d4 9abf 943e a2bf bae7 aabf
00000350: 4bc4 a8bf be84 9abf 6c35 9cbf c783 8cbf
00000360: 1b82 86bf 3d65 94bf bf7a a2bf 0c4d acbf
00000370: 89ae a3bf 3fba a9bf 2f01 92bf 86b1 91bf
00000380: df89 9cbf b35c 9abf 4a7d a1bf 9715 a8bf
00000390: a316 b3bf ea9b 99bf 0a76 99bf 424c 98bf
000003a0: 280c 97bf 9334 a6bf e8cf 7dbf 4a1e a7bf
000003b0: 2665 98bf f998 7cbf 5fd4 a4bf befa a8bf
000003c0: 3c8a 84bf 02bd 9ebf 0a06 a3bf a9a0 5dbf
000003d0: e9a1 75bf 2205 91bf caa3 8fbf a018 93bf
000003e0: b70e 8ebf 5b13 88bf 4257 88bf 9921 85bf
000003f0: 4bf0 91bf 7d5b 67bf e38d 86bf 395d 8ebf

model.bias f4 [3]
0.030517055 -0.07755593 0.12090495
00000000: e7fe f93c a5d5 9ebd 049d f73d

exp_avg f4 [3, 808]
8.027299e-05 0.00092243083 -0.00019145176 -0.0002551931 -0.00035420843 0.00052188826 -0.003476998 -0.00036582275
-3.174833e-06 -0.0001203043 -0.0003925765 3.5148045e-05 -0.00038088526 -0.0004251723 0.0006398626 -0.0003796364
0.00018880484 8.2303966e-05 5.8161364e-05 -8.125689e-05 0.00012463925 -7.6109325e-05 5.538349e-05 7.21131e-05
0.00013458398 7.590355e-05 -0.00016460083 9.370212e-05 -8.8936287e-07 7.130554e-05 0.0002944237 -2.306084e-05
-4.0342966e-05 0.00010321686 5.4185268e-05 -6.298613e-05 -0.00019583562 8.652348e-06 -8.603235e-05 5.9939874e-05
-2.718807e-05 6.718635e-05 8.55171e-05 -2.6735192e-05 6.8838934e-05 -5.18304e-05 0.00018671868 -4.2159038e-05
6.323909e-06 7.2689756e-05 -1.7358252e-05 -3.3742046e-05 3.13916e-05 5.54662e-05 2.7892995e-05 1.6562912e-05
3.6793751e-06 -3.6582598e-05 3.6510086e-05 -2.0780282e-05 1.8050674e-05 3.671234e-05 3.1160791e-06 -2.2155964e-05
-3.8156042e-05 -2.6445512e-05 -0.00012096012 -0.0018022956 -7.2464565e-05 -6.948072e-05 5.7235353e-05 -5.188715e-05
1.6587053e-05 -6.294955e-05 -7.736451e-05 -0.00048742985 0.00022925003 -7.61875e-05 -2.2237134e-06 -6.542304e-05
6.523624e-05 -0.0005334885 -0.00020372041 -0.0002992083 -0.00032411536 0.00013791931 0.0001942796 1.5394058e-05
-8.763626e-06 0.00014460953 0.00016652686 0.00017702144 -0.00012517956 -0.00016967425 3.400151e-05 -6.5905304e-05
0.0001012335 -0.000101490456 -0.00013990203 5.359249e-05 0.00013842787 5.450387e-05 -0.00012216871 -0.00013036706
0.00017214876 4.7767087e-05 -3.2978747e-05 -0.000103185674 0.00040871726 5.808355e-05 -6.559323e-05 -0.000109857385
-0.00013013945 1.4467402e-05 -0.00013900809 -8.0313104e-05 6.23351e-05 2.9698913e-05 -0.00015075022 0.000104688515
0.0001174758 0.00012836234 0.00010631631 0.00025487205 -3.705885e-05 4.882715e-05 4.0457664e-05 3.676452e-05
-0.0049632383 -0.00038899927 -0.00016631765 0.0015599816 -8.0005186e-05 -0.0038250552 -3.9012797e-05 3.0049883e-05
0.00015718963 -0.00011153134 5.022881e-05 0.00047962004 -0.00026347008 -9.963912e-05 -9.648146e-05 0.00038704765
0.00022229133 0.00023086436 -0.0002684307 -0.00041580905 -6.6847406e-07 -0.00017375752 -0.00015445026 0.00013640648
4.180203e-05 0.00013539159 0.00015271176 -0.0002249162 -5.7393234e-05 -0.00013984159 -4.674564e-05 0.00021945797
4.957454e-05 -1.0019342e-05 2.1313874e-05 -0.00013832189 -0.0002066042 -0.00012223098 0.00022476773 6.279158e-05
-0.00010182497 0.00035933047 4.7960555e-05 0.0005314739 -0.00015261972 5.416132e-05 -8.383681e-05 0.00010363198
0.00015949429 9.516546e-05 0.00013540377 -6.52809e-05 3.8685153e-05 0.00020898406 1.8218141e-05 -9.6029115e-05
0.00022461814 -4.2936546e-05 -1.475448e-06 0.00015247079 -3.604558e-05 -3.1714255e-05 -4.8202215e-05 -3.764572e-05
-8.6428474e-05 -0.00015203295 -0.002032041 -2.5601716e-05 -7.752982e-05 -0.00031315023 -0.00010320597 1.54716e-05
-8.5685875e-05 -0.00021126392 9.0053196e-05 -0.00040805785 -0.0011323579 4.0416458e-06 -0.00035054146 -4.192027e-05
-0.00015564603 -1.35759465e-05 0.0003244376 -0.0014986915 -0.00075140793 -0.0008463569 0.00036262785 0.00020803954
0.00023579084 0.00018521791 -0.00029786772 3.6133948e-05 6.511814e-05 -0.00015068568 0.00024269518 -0.0002273164
0.00010292966 0.00032514762 8.884208e-05 -0.0005009002 0.00022634535 -0.00018951489 0.00021354927 2.0425723e-05
0.00026516325 -0.0002439525 0.00022775486 8.725324e-05 -0.0001245723 0.00019800616 -7.63574e-05 0.0006294561
-5.2217154e-05 -0.00013161162 0.0001658054 -0.000120540724 0.00017132485 -0.0003851356 8.185164e-05 -9.462972e-05
-0.00011534161 9.956287e-05 2.1406004e-05 8.1140635e-05 -4.14361e-05 3.1383766e-05 9.28888e-06 4.5709763e-05
00000000: 3c58 a838 49cf 713a 71c0 48b9 70cb 85b9
00000010: 0db5 b9b9 54cf 083a 59de 63bb e6cb bfb9
00000020: 370f 55b6 e14b fcb8 bad2 cdb9 ed6b 1338
00000030: 8eb1 c7b9 a9e9 deb9 74bc 273a ef09 c7b9
00000040: eaf9 4539 9b9a ac38 4af2 7338 7668 aab8
00000050: 98b1 0239 e29c 9fb8 924b 6838 6d3b 9738
00000060: 1d1f 0d39 682e 9f38 b398 2cb9 f181 c438
00000070: 8dbc 6eb5 df89 9538 e15c 9a39 c772 c1b7
00000080: ee35 29b8 2176 d838 fd44 6338 6c17 84b8
00000090: 3959 4db9 8d29 1137 446c b4b8 f367 7b38
000000a0: f011 e4b7 66e6 8c38 a557 b338 6345 e0b7
000000b0: 9f5d 9038 7864 59b8 eac9 4339 ecd3 30b8
000000c0: f731 d436 0471 9838 909c 91b7 3f86 0db8
000000d0: 79aa 0338 61a4 6838 c0fb e937 95f0 8a37
000000e0: 2feb 7636 4470 19b8 6822 1938 5151 aeb7
000000f0: 876b 9737 93fb 1938 d51d 5136 92db b9b7
00000100: bd09 20b8 4ed7 ddb7 f8ab fdb8 013b ecba
00000110: 1ef8 97b8 2db6 91b8 fe0f 7038 67a1 59b8
00000120: 6d24 8b37 c803 84b8 c13e a2b8 ba8d ffb9
00000130: d662 7039 dac6 9fb8 1b3b 15b6 ba33 89b8
00000140: 71cf 8838 cfd9 0bba c89d 55b9 0fdf 9cb9
00000150: 07ee a9b9 6f9e 1039 88b7 4b39 7d22 8137
00000160: 7d07 13b7 53a2 1739 b79d 2e39 d59e 3939
00000170: a242 03b9 96ea 31b9 d89c 0e38 a436 8ab8
00000180: 524d d438 46d7 d4b8 aab2 12b9 7fc8 6038
00000190: f326 1139 169b 6438 6a1a 00b9 24b3 08b9
000001a0: d582 3439 8559 4838 a952 0ab8 6365 d8b8
000001b0: 1a49 d639 bd9e 7338 198f 89b8 3c63 e6b8
000001c0: 0b76 08b9 05b9 7237 b3c2 11b9 c56d a8b8
000001d0: e7b9 8238 ee21 f937 b412 1eb9 388c db38
000001e0: 575d f638 0199 0639 22f6 de38 59a0 8539
000001f0: a36f 1bb8 c1cb 4c38 16b1 2938 9a33 1a38
00000200: a9a2 a2bb 99f2 cbb9 8e65 2eb9 4c78 cc3a
00000210: 75c8 a7b8 c7ad 7abb aca1 23b8 a213 fc37
00000220: 45d3 2439 efe5 e9b8 c6ac 5238 8375 fb39
00000230: 5b22 8ab9 58f5 d0b8 1756 cab8 a8ec ca39
00000240: e016 6939 2e14 7239 29bc 8cb9 f200 dab9
00000250: 3071 33b5 ae32 36b9 edf3 21b9 5608 0f39
00000260: 9754 2f38 e7f7 0d39 4021 2039 7cd7 6bb9
00000270: 84b9 70b8 71a2 12b9 c010 44b8 4d1e 6639
00000280: 42ee 4f38 bf18 28b7 32cb b237 800a 11b9
00000290: e5a3 58b9 212b 00b9 a1af 6b39 f9ae 8338
000002a0: dd8a d5b8 8564 bc39 4129 4938 9c52 0b3a
000002b0: 8b08 20b9 462b 6338 8bd1 afb8 ff54 d938
000002c0: ec3d 2739 9193 c738 2cfb 0d39 6be7 88b8
000002d0: de41 2238 bb22 5b39 29d3 9837 3d63 c9b8
000002e0: 7987 6b39 c416 34b8 0208 c6b5 91e0 1f39
000002f0: a62f 17b8 ec04 05b8 bc2c 4ab8 c9e5 1db8
00000300: ef40 b5b8 096b 1fb9 fe2b 05bb 44c3 d6b7
00000310: 8197 a2b8 502e a4b9 4970 d8b8 02c9 8137
00000320: 41b2 b3b8 ba86 5db9 f1da bc38 99f0 d5b9
00000330: a06b 94ba 799d 8736 e1c8 b7b9 8cd3 2fb8
00000340: ea34 23b9 3fc4 63b7 4719 aa39 be6f c4ba
00000350: 22fa 44ba 0dde 5dba 161f be39 3025 5a39
00000360: 9f3e 7739 0e37 4239 212b 9cb9 888e 1738
00000370: 0990 8838 6101 1eb9 fe7b 7e39 c85b 6eb9
00000380: f1db d738 9378 aa39 ba50 ba38 d84e 03ba
00000390: 1e57 6d39 84b8 46b9 32ec 5f39 e857 ab37
000003a0: 9c05 8b39 80cd 7fb9 7bd1 6e39 bafb b638
000003b0: 9f9f 02b9 e09f 4f39 1122 a0b8 1502 253a
000003c0: be03 5bb8 3a01 0ab9 0cdc 2d39 cfca fcb8
000003d0: aaa5 3339 06ec c9b9 c4a7 ab38 f273 c6b8
000003e0: 8ee3 f1b8 69cc d038 0b91 b337 0c2a aa38
000003f0: accb 2db8 10a2 0338 70d7 1b37 7cb8 3f38

exp_avg_sq f4 [3, 808]
3.0065112e-07 2.8432792e-06 7.1174413e-06 1.1757169e-06 3.539446e-05 2.3629373e-06 6.272788e-05 5.5060304e-06
2.511889e-07 5.8957806e-07 9.116019e-07 1.7291864e-06 2.1366525e-06 2.5180977e-06 3.5652808e-06 3.0775486e-06
1.444523e-07 3.3467535e-07 5.349863e-07 8.530491e-07 1.1151342e-06 1.1758684e-06 1.1512728e-06 5.777143e-07
9.733962e-08 1.6833354e-07 2.6077325e-07 3.9424063e-07 4.497216e-07 4.7915574e-07 3.8690942e-07 2.4689095e-07
7.593679e-08 1.5531604e-07 1.6809678e-07 1.6527704e-07 1.9897601e-07 2.0459902e-07 2.0513446e-07 1.1966229e-07
5.0462354e-08 9.3273705e-08 9.311762e-08 9.485784e-08 9.7733476e-08 1.2109967e-07 1.24416e-07 8.348063e-08
2.4727777e-08 5.994159e-08 5.2323955e-08 3.8843567e-08 4.3575326e-08 5.7884172e-08 6.137083e-08 3.2605854e-08
1.6657497e-08 2.2204528e-08 1.4541877e-08 1.1443665e-08 1.3932675e-08 1.6216864e-08 1.6866107e-08 1.1187119e-08
2.3711371e-07 3.3175368e-07 7.7662196e-07 3.9550483e-05 9.930064e-07 3.418153e-07 8.7283425e-08 6.2509166e-08
1.5425367e-07 4.433727e-07 4.877611e-06 6.4161786e-06 6.6185294e-06 7.7643057e-07 3.7626324e-07 1.5754787e-07
3.0452927e-07 2.6497887e-06 1.163722e-06 4.0390883e-06 1.9045027e-06 4.772006e-06 1.6688114e-06 6.371104e-07
1.3843759e-06 4.50709e-07 9.611076e-07 1.3700502e-06 1.07467e-06 9.994138e-07 1.4783574e-06 7.4782474e-07
2.6004534e-07 5.342393e-07 3.3557984e-07 7.73494e-07 6.2927e-07 5.0838355e-07 6.580457e-07 1.3908287e-06
3.4106517e-07 2.2540577e-07 4.87901e-07 3.7388259e-07 4.83635e-07 3.8017956e-07 4.2059415e-07 7.7700435e-07
4.093257e-07 6.084294e-07 3.8736704e-07 3.220326e-07 3.2126135e-07 4.5158987e-07 3.007373e-07 3.5515833e-07
2.577644e-07 1.388081e-07 1.7104351e-07 3.124798e-07 2.0507603e-07 1.07918765e-07 1.0981299e-07 2.1045595e-07
8.594279e-05 5.329116e-06 6.9026155e-06 1.5300277e-05 1.5758491e-05 3.9673418e-05 2.5319655e-06 4.5923105e-05
4.916179e-07 4.3916395e-07 7.1068916e-07 1.3194388e-06 1.2446526e-06 1.1067779e-06 3.8930685e-07 3.7936528e-07
4.0958446e-07 4.5637177e-07 4.7262134e-07 7.6620387e-07 1.0326017e-06 9.955775e-07 6.7205065e-07 5.6933186e-07
2.9994533e-07 2.6966248e-07 3.3743524e-07 5.7940025e-07 6.2386437e-07 4.993183e-07 3.315923e-07 3.592214e-07
3.0652004e-07 3.0397055e-07 3.8845732e-07 4.810968e-07 5.888073e-07 3.7192834e-07 2.7357254e-07 2.986285e-07
3.9308702e-07 3.181356e-07 3.6608552e-07 4.8077897e-07 4.2423903e-07 2.9361456e-07 2.0035866e-07 2.7619842e-07
7.373209e-07 7.603178e-07 7.2959455e-07 6.463436e-07 5.4179594e-07 4.18997e-07 3.6528306e-07 3.627559e-07
3.2643229e-07 2.4740322e-07 2.9444632e-07 4.6511695e-07 3.929197e-07 2.0643874e-07 1.5293267e-07 1.9962575e-07
1.9359287e-07 6.041522e-07 2.9362425e-05 3.7074705e-07 2.9853143e-07 1.5610338e-05 9.99786e-08 1.05513045e-07
1.1439377e-06 6.3798734e-06 2.2368547e-06 5.4599664e-06 9.3632225e-06 7.1236377e-07 8.214642e-06 6.5691995e-07
1.0456059e-06 4.4184208e-06 1.5393606e-06 1.06204225e-05 9.5494315e-06 2.3346965e-06 2.8489208e-06 7.3336463e-07
9.200661e-07 5.052166e-07 8.901232e-06 1.2038122e-06 1.3460592e-06 6.69745e-06 5.257432e-07 1.5294078e-06
2.3010146e-07 3.1377983e-06 6.1623626e-07 1.3511728e-06 1.044893e-06 4.7182414e-07 5.4492198e-06 3.8921888e-07
3.4140243e-07 3.2877887e-07 7.236293e-07 5.904394e-07 4.8450516e-07 8.746246e-07 3.4354233e-07 1.1657726e-06
2.3053062e-07 2.6981664e-07 3.0477074e-07 2.0993436e-07 3.2608887e-07 4.058854e-07 2.7255095e-07 2.443247e-07
1.1385896e-07 6.936034e-08 6.144681e-08 1.01270736e-07 7.035042e-08 1.1332874e-07 5.3777093e-08 6.967459e-08
00000000: 2d69 a134 2acf 3e36 5bd2 ee36 53cd 9d35
00000010: 8374 1438 f492 1e36 c68c 8338 71c0 b836
00000020: 24db 8634 7f43 1e35 ceb4 7435 6416 e835
00000030: 6963 0f36 97fc 2836 0f43 6f36 e287 4e36
00000040: bf1a 1b34 6ead b334 fb9b 0f35 16fd 6435
00000050: b8ab 9535 88d2 9d35 6f85 9a35 3914 1b35
00000060: 0609 d133 2cbf 3434 6700 8c34 05a8 d334
00000070: 4471 f134 559f 0035 6db8 cf34 6f8c 8434
00000080: b112 a333 f3c4 2634 177e 3434 0277 3134
00000090: 1ca6 5534 c0af 5b34 ee42 5c34 857c 0034
000000a0: f2bb 5833 c34d c833 f4f7 c733 a6b4 cb33
000000b0: 8ce1 d133 a007 0234 3697 0534 f645 b333
000000c0: f568 d432 3db9 8033 ccba 6033 f4d4 2633
000000d0: 9427 3b33 529c 7833 f8ca 8333 840a 0c33
000000e0: 3916 8f32 46bc be32 dad3 7932 c599 4432
000000f0: 8d5c 6f32 434d 8b32 f6e0 9032 7831 4032
00000100: 5299 7e34 e11b b234 0e79 5035 02e3 2538
00000110: 7147 8535 bd82 b734 9270 bb33 c73c 8633
00000120: eda0 2534 ae08 ee34 5caa a336 8e4a d736
00000130: bc14 de36 e76b 5035 3a01 ca34 6e2a 2934
00000140: 2f7e a334 06d3 3136 2f31 9c35 8187 8736
00000150: 379e ff35 381f a036 ecfb df35 e505 2b35
00000160: cbce b935 f9f8 f134 68ff 8035 91e2 b735
00000170: 613d 9035 9923 8635 f96b c635 20be 4835
00000180: 5c9c 8b34 a568 0f35 be29 b434 1aa2 4f35
00000190: 1beb 2835 da77 0835 8ea4 3035 83ac ba35
000001a0: a41b b734 1107 7234 4df8 0235 08ba c834
000001b0: 25d3 0135 7b1b cc34 05ce e134 5593 5035
000001c0: 4cc1 db34 f352 2335 52f7 cf34 d3e3 ac34
000001d0: d379 ac34 0a72 f234 0575 a134 97ac be34
000001e0: df62 8a34 480b 1534 15a8 3734 e6c2 a734
000001f0: df32 5c34 f8c0 e733 54d2 eb33 b1f9 6134
00000200: 2f3c b438 c2d0 b236 049d e736 1859 8037
00000210: 1a31 8437 0267 2638 d6ea 2936 8f9d 4038
00000220: baf7 0335 3cc6 eb34 30c6 3e35 9217 b135
00000230: f00d a735 998c 9435 ed01 d134 91ab cb34
00000240: dce4 db34 4203 f534 95bc fd34 21ad 4d35
00000250: ed97 8a35 c89f 8535 f866 3435 30d4 1835
00000260: 2c08 a134 21c6 9034 bf28 b534 1588 1b35
00000270: a277 2735 e408 0635 b305 b234 03db c034
00000280: cb8f a434 6531 a334 2b8d d034 b824 0135
00000290: 880e 1e35 71ad c734 86df 9234 3053 a034
000002a0: 7809 d334 39cc aa34 698a c434 e10e 0135
000002b0: f8c2 e334 14a2 9d34 2b22 5734 6c48 9434
000002c0: 4eec 4535 a418 4c35 5bd9 4335 6580 2d35
000002d0: ef6f 1135 82f2 e034 1f1c c434 cbc0 c234
000002e0: 8340 af34 d7d2 8434 6514 9e34 30b5 f934
000002f0: 79f2 d234 73a9 5d34 d035 2434 b558 5634
00000300: 67de 4f34 062d 2235 544f f637 160b c734
00000310: d945 a034 f2f2 8237 d1b3 d633 6996 e233
00000320: 6689 9935 b212 d636 df1c 1636 c134 b736
00000330: bc16 1d37 4439 3f35 9ed1 0937 3257 3035
00000340: bf56 8c35 f241 9436 079c ce35 5e2e 3237
00000350: 7f36 2037 c8ad 1c36 1630 3f36 6fdc 4435
00000360: 76fa 7635 389e 0735 8056 1537 ac92 a135
00000370: 3eaa b435 a8ba e036 cc20 0d35 0d46 cd35
00000380: cf11 7734 f792 5236 6f6b 2535 f259 b535
00000390: 403e 8c35 044f fd34 71d8 b636 d6f5 d034
000003a0: fe49 b734 0683 b034 6d3f 4235 b07e 1e35
000003b0: f10e 0235 bfc7 6a35 1970 b834 a477 9c35
000003c0: c687 7734 51db 9034 5f9f a334 516a 6134
000003d0: 5011 af34 77e8 d934 1e53 9234 bb2b 8334
000003e0: a082 f433 40f3 9433 bef4 8333 2d7a d933
000003f0: 8d13 9733 225f f333 8af8 6633 03a0 9533

exp_avg f4 [3]
-0.0029624314 -0.0015554155 0.004519819
00000000: 5a25 42bb 15df cbba fd1a 943b

exp_avg_sq f4 [3]
0.00016575555 3.290286e-05 0.000164557
00000000: abce 2d39 2d01 0a38 ef8c 2c39
